…
      (13): LinearizedConvolution(512, 1024, kernel_size=(3,), padding=(2,))
      (14): LinearizedConvolution(512, 1024, kernel_size=(3,), padding=(2,))
      (15): LinearizedConvolution(512, 1024, kernel_size=(3,), padding=(2,))
      (16): LinearizedConvolution(512, 1024, kernel_size=(3,), padding=(2,))
      (17): LinearizedConvolution(512, 1024, kernel_size=(3,), padding=(2,))
      (18): LinearizedConvolution(512, 1024, kernel_size=(3,), padding=(2,))
      (19): LinearizedConvolution(512, 1024, kernel_size=(3,), padding=(2,))
    )
    (attention): ModuleList(
      (0): AttentionLayer(
        (in_projection): Linear(in_features=512, out_features=512, bias=True)
        (out_projection): Linear(in_features=512, out_features=512, bias=True)
      )
      (1): AttentionLayer(
        (in_projection): Linear(in_features=512, out_features=512, bias=True)
        (out_projection): Linear(in_features=512, out_features=512, bias=True)
      )
      (2): AttentionLayer(
        (in_projection): Linear(in_features=512, out_features=512, bias=True)
        (out_projection): Linear(in_features=512, out_features=512, bias=True)
      )
      (3): AttentionLayer(
        (in_projection): Linear(in_features=512, out_features=512, bias=True)
        (out_projection): Linear(in_features=512, out_features=512, bias=True)
      )
      (4): AttentionLayer(
        (in_projection): Linear(in_features=512, out_features=512, bias=True)
        (out_projection): Linear(in_features=512, out_features=512, bias=True)
      )
      (5): AttentionLayer(
        (in_projection): Linear(in_features=512, out_features=512, bias=True)
        (out_projection): Linear(in_features=512, out_features=512, bias=True)
      )
      (6): AttentionLayer(
        (in_projection): Linear(in_features=512, out_features=512, bias=True)
        (out_projection): Linear(in_features=512, out_features=512, bias=True)
      )
      (7): AttentionLayer(
        (in_projection): Linear(in_features=512, out_features=512, bias=True)
        (out_projection): Linear(in_features=512, out_features=512, bias=True)
      )
      (8): AttentionLayer(
        (in_projection): Linear(in_features=512, out_features=512, bias=True)
        (out_projection): Linear(in_features=512, out_features=512, bias=True)
      )
      (9): AttentionLayer(
        (in_projection): Linear(in_features=512, out_features=512, bias=True)
        (out_projection): Linear(in_features=512, out_features=512, bias=True)
      )
      (10): AttentionLayer(
        (in_projection): Linear(in_features=512, out_features=512, bias=True)
        (out_projection): Linear(in_features=512, out_features=512, bias=True)
      )
      (11): AttentionLayer(
        (in_projection): Linear(in_features=512, out_features=512, bias=True)
        (out_projection): Linear(in_features=512, out_features=512, bias=True)
      )
      (12): AttentionLayer(
        (in_projection): Linear(in_features=512, out_features=512, bias=True)
        (out_projection): Linear(in_features=512, out_features=512, bias=True)
      )
      (13): AttentionLayer(
        (in_projection): Linear(in_features=512, out_features=512, bias=True)
        (out_projection): Linear(in_features=512, out_features=512, bias=True)
      )
      (14): AttentionLayer(
        (in_projection): Linear(in_features=512, out_features=512, bias=True)
        (out_projection): Linear(in_features=512, out_features=512, bias=True)
      )
      (15): AttentionLayer(
        (in_projection): Linear(in_features=512, out_features=512, bias=True)
        (out_projection): Linear(in_features=512, out_features=512, bias=True)
      )
      (16): AttentionLayer(
        (in_projection): Linear(in_features=512, out_features=512, bias=True)
        (out_projection): Linear(in_features=512, out_features=512, bias=True)
      )
      (17): AttentionLayer(
        (in_projection): Linear(in_features=512, out_features=512, bias=True)
        (out_projection): Linear(in_features=512, out_features=512, bias=True)
      )
      (18): AttentionLayer(
        (in_projection): Linear(in_features=512, out_features=512, bias=True)
        (out_projection): Linear(in_features=512, out_features=512, bias=True)
      )
      (19): AttentionLayer(
        (in_projection): Linear(in_features=512, out_features=512, bias=True)
        (out_projection): Linear(in_features=512, out_features=512, bias=True)
      )
    )
    (fc2): Linear(in_features=512, out_features=256, bias=True)
    (fc3): Linear(in_features=256, out_features=9480, bias=True)
  )
)
2021-04-12 12:40:57 | INFO | fairseq_cli.train | task: TranslationTask
2021-04-12 12:40:57 | INFO | fairseq_cli.train | model: FConvModel
2021-04-12 12:40:57 | INFO | fairseq_cli.train | criterion: LabelSmoothedCrossEntropyCriterion)
2021-04-12 12:40:57 | INFO | fairseq_cli.train | num. model params: 83312656 (num. trained: 83312656)
2021-04-12 12:40:57 | INFO | fairseq_cli.train | training on 1 devices (GPUs/TPUs)
…
